src_pose_3D_single_model/outputs/tSNE_vector_2_layer.npy (npy, 22336 bytes, 1 tensors)

array f4 [2776, 2]
44.643814 53.897205 37.3175 16.474417 17.704351 72.39115 19.49745 73.36409
-18.28579 12.112961 22.641586 70.48245 42.36078 60.791977 -6.286177 58.77604
-6.4305067 -20.057737 50.42638 33.898506 57.27536 45.417248 23.703844 64.60792
46.190674 36.95969 -5.463556 88.98412 43.09889 31.929901 -0.30258787 33.573082
44.25637 42.044662 30.680817 80.02502 48.443024 56.12026 -23.373377 75.087074
-10.119285 54.453655 9.382767 56.188526 49.83915 31.086603 39.253242 1.8544111
0.8928325 51.353416 -1.8036311 87.23533 17.711601 78.46899 12.246603 60.124676
29.124794 30.883785 41.98259 39.98146 20.38982 19.791153 -13.890389 18.352623
31.829332 40.459698 -8.146946 61.582607 22.175072 38.59923 48.88559 66.10915
7.1119885 33.347652 -16.787823 13.525143 5.2405224 47.999706 40.814022 19.74966
-31.314764 75.03859 25.31993 71.687454 47.812984 53.732994 -24.654839 27.733912
42.05855 8.637039 -19.118893 74.72059 21.23986 80.18801 13.929114 71.11872
-6.2411304 45.48556 3.9617548 89.9337 50.6967 40.25336 4.997677 -6.4024453
46.630074 33.4424 14.354647 39.85082 -29.321085 74.00626 4.830909 85.60443
11.696975 93.26536 19.300303 86.91068 60.5099 34.0275 -21.634518 23.323841
35.442142 67.24072 25.333458 37.770607 0.6611869 71.3821 -25.426107 69.40223
-5.3131156 63.25681 39.530865 72.63434 -34.35915 53.24953 -14.144675 49.81316
12.672587 80.95995 15.319239 89.5881 -1.9790932 79.18483 11.487905 73.57544
-25.188473 44.64105 0.58406186 47.005688 -58.045464 11.977796 -3.8061764 41.298492
-31.331978 45.188217 7.56848 70.73508 15.959068 83.4221 -27.921175 47.07928
-0.95789963 65.35167 -19.760447 40.036736 22.468004 85.74259 -23.26869 81.33562
-14.862817 46.402306 -42.72002 69.088776 2.9737303 45.34358 -17.133167 63.68274
-27.787647 51.598377 -14.233832 67.41126 36.97575 62.62222 3.7181501 68.28908
11.451778 77.72626 15.700997 36.242134 -32.137955 52.6744 -9.95958 42.565125
-1.3801414 67.27271 21.346537 34.246662 19.378115 33.04198 12.432481 82.92454
7.638337 75.00762 -12.5748415 35.47205 -23.507654 55.72393 -9.2168045 75.38184
-17.547653 28.955008 4.9440494 37.404697 -62.11537 11.039785 22.08687 89.105644
-19.575975 30.783169 -13.608626 69.845924 -13.228749 43.124275 -55.044533 -1.124779
37.915817 53.73121 -13.372424 32.880585 -29.823889 67.02973 -29.379612 65.12702
-22.21299 12.120231 20.55302 67.6716 41.258545 61.7155 -7.3455296 57.967197
-11.147873 -21.175337 49.68676 35.585835 56.082916 46.346348 20.38789 64.69165
5.7617445 21.139864 -10.661351 86.50637 9.380033 15.043536 -41.097095 -13.873396
00000000: 4493 3242 bd96 5742 1f45 1542 9bcb 8341
00000010: 83a2 8d41 45c8 9042 c7fa 9b41 6aba 9242
00000020: 4c49 92c1 b0ce 4141 f821 b541 04f7 8c42
00000030: 7071 2942 fc2a 7342 5d28 c9c0 aa1a 6b42
00000040: b6c6 cdc0 3f76 a0c1 9db4 4942 1298 0742
00000050: f819 6542 43ab 3542 79a1 bd41 4137 8142
00000060: 40c3 3842 b9d6 1342 73d5 aec0 dff7 b142
00000070: 4365 2c42 7070 ff41 ccec 9abe d64a 0642
00000080: 8606 3142 bc2d 2842 5072 f541 cf0c a042
00000090: a8c5 4142 257b 6042 adfc bac1 952c 9642
000000a0: 97e8 21c1 8bd0 5942 d01f 1641 0dc1 6042
000000b0: 4a5b 4742 5db1 f841 5203 1d42 585d ed3f
000000c0: ac90 643f e669 4d42 62dd e6bf 7d78 ae42
000000d0: 5cb1 8d41 1ff0 9c42 16f2 4341 ab7f 7042
000000e0: 94ff e841 fe11 f741 2cee 2742 04ed 1f42
000000f0: 5a1e a341 4854 9e41 093f 5ec1 2cd2 9241
00000100: 79a2 fe41 bbd6 2142 e459 02c1 9754 7642
00000110: 8c66 b141 9d65 1a42 d88a 4342 e337 8442
00000120: 6995 e340 ff63 0542 764d 86c1 fc66 5841
00000130: 5cb2 a740 b3ff 3f42 8f41 2342 4eff 9d41
00000140: a384 fac1 c213 9642 378f ca41 fa5f 8f42
00000150: 7f40 3f42 96ee 5642 1c3d c5c1 0ddf dd41
00000160: f53b 2842 5031 0a41 7ef3 98c1 f170 9542
00000170: 3ceb a941 4360 a042 a7dd 5e41 c93c 8e42
00000180: 57b7 c7c0 37f1 3542 648d 7d40 0ede b342
00000190: 6cc9 4a42 7103 2142 f8ec 9f40 d5e0 ccc0
000001a0: 3285 3a42 05c5 0542 a2ac 6541 3d67 1f42
000001b0: 9591 eac1 3503 9442 ce96 9a40 7835 ab42
000001c0: cf26 3b41 dd87 ba42 0567 9a41 45d2 ad42
000001d0: 230a 7242 291c 0842 7e13 adc1 3a97 ba41
000001e0: c1c4 0d42 407b 8642 ecaa ca41 1a15 1742
000001f0: 8b43 293f a3c3 8e42 ab68 cbc1 f1cd 8a42
00000200: 0b05 aac0 f906 7d42 9b1f 1e42 c844 9142
00000210: c56f 09c2 85ff 5442 9750 62c1 ad40 4742
00000220: ebc2 4a41 7feb a142 9a1b 7541 1b2d b342
00000230: ed52 fdbf a25e 9e42 75ce 3741 a026 9342
00000240: fe81 c9c1 6f90 3242 1485 153f d305 3c42
00000250: 8e2e 68c2 0da5 3f41 6598 73c0 a831 2542
00000260: e4a7 fac1 bcc0 3442 fd30 f240 5c78 8d42
00000270: 5858 7f41 1dd8 a642 915e dfc1 2f51 3c42
00000280: e938 75bf 0eb4 8242 6515 9ec1 9e25 2042
00000290: 79be b341 357c ab42 4726 bac1 d6ab a242
000002a0: 19ce 6dc1 f69b 3942 4de1 2ac2 742d 8a42
000002b0: 9951 3e40 d35f 3542 ba10 89c1 20bb 7e42
000002c0: 1a4d dec1 bd64 4e42 c7bd 63c1 91d2 8642
000002d0: 2be7 1342 277d 7a42 2cf6 6d40 0294 8842
000002e0: 7c3a 3741 d873 9b42 4937 7b41 f2f7 1042
000002f0: 448d 00c2 96b2 5242 715a 1fc1 b042 2a42
00000300: 79a8 b0bf a18b 8642 b5c5 aa41 95fc 0842
00000310: 6106 9b41 fd2a 0442 71eb 4641 5dd9 a542
00000320: 426d f440 e703 9642 8d32 49c1 61e3 0d42
00000330: ad0f bcc1 4ee5 5e42 0878 13c1 81c3 9642
00000340: 9861 8cc1 dba3 e741 a735 9e40 699e 1542
00000350: 2476 78c2 f6a2 3041 e9b1 b041 1736 b242
00000360: 999b 9cc1 ee43 f641 efbc 59c1 1db1 8b42
00000370: f5a8 53c1 427f 2c42 9a2d 5cc2 c2f8 8fbf
00000380: cca9 1742 c2ec 5642 73f5 55c1 b885 0342
00000390: 5397 eec1 390f 8642 7209 ebc1 0941 8242
000003a0: 34b4 b1c1 77ec 4141 966c a441 dc57 8742
000003b0: c008 2542 acdc 7642 940e ebc0 69de 6742
000003c0: b05d 32c1 1767 a9c1 3ebf 4642 e557 0e42
000003d0: e854 6042 a962 3942 661a a341 2062 8142
000003e0: 3660 b840 711e a941 e594 2ac1 4303 ad42
000003f0: 9d14 1641 53b2 7041 6d63 24c2 6ef9 5dc1
