src_pose_3D_single_model/outputs/tSNE_vector_4_layer.npy (npy, 22368 bytes, 1 tensors)

array f4 [2780, 2]
000000 2f ba 03 42 0c 06 7b c2 56 cb e0 41 8b df 7d c1
       32.93182 -62.755905 28.099285 -15.867076
000010 85 bb ab 41 b7 08 28 c1 fc bf a6 41 a1 2e 27 c1
       21.466562 -10.502128 20.843742 -10.448884
000020 fa eb c5 41 60 ac c1 c1 51 65 b5 41 b4 4a 42 c1
       24.740223 -24.209167 22.67447 -12.143238
000030 09 07 03 42 b0 81 80 c2 87 76 06 41 1c 2a 59 3f
       32.75687 -64.253296 8.403937 0.8482988
000040 b7 05 af 41 24 ea 00 c0 0b fc 8b 41 58 20 6c c2
       21.87779 -2.0142908 17.498068 -59.031586
000050 fa 33 d1 41 b8 cc 61 c2 e8 90 b5 41 4c e1 0c c1
       26.15038 -56.44992 22.695755 -8.805004
000060 5d 6f 8a 41 19 75 70 c2 17 c2 1e 42 8e e1 30 c2
       17.304377 -60.114353 39.68954 -44.22027
000070 7a e3 82 41 7f df 71 c2 df ea c7 3f 45 fe 57 c1
       16.361073 -60.468258 1.5618552 -13.4995775
000080 be 94 92 41 5b 06 72 c2 e0 4f 04 42 5d 39 4a c2
       18.322628 -60.506207 33.078003 -50.55602
000090 57 e4 01 42 fb 89 78 c2 1c 3f 58 42 5f 60 5f 40
       32.47299 -62.134747 54.06163 3.490257
0000a0 88 66 d5 40 4b ca 2f bf 5d 6a 27 42 10 89 d2 c1
       6.668766 -0.6866805 41.85387 -26.316925
0000b0 7d 41 3b 41 94 f0 4b c2 eb e3 7d 41 c8 ca 67 c1
       11.703488 -50.98494 15.868144 -14.487007
0000c0 53 10 14 42 d2 e2 ea c1 57 f8 35 42 4a d1 25 c2
       37.01594 -29.360752 45.49252 -41.454384
0000d0 2e 54 a6 41 a7 1e 3e c1 d4 64 ab 41 6c 8f d0 c1
       20.791103 -11.8824835 21.424232 -26.07003
0000e0 65 f5 a8 41 4d f8 93 c1 b5 cf 16 40 a5 9c 67 c1
       21.119822 -18.49624 2.3564274 -14.475743
0000f0 e1 50 19 42 23 4d 88 c1 74 65 3f 42 77 a9 21 c2
       38.328983 -17.037664 47.849075 -40.415493
000100 4b 53 0d 42 50 0b 94 c1 b7 3f 32 42 81 72 db c1
       35.33134 -18.505524 44.56222 -27.43091
000110 56 9f 01 42 97 28 8a c1 2b bc 08 42 c1 6b 81 c2
       32.4056 -17.26982 34.183758 -64.71046
000120 35 e3 fe 41 22 5d 88 c1 0e b7 c8 41 53 14 c0 c1
       31.86094 -17.045475 25.089382 -24.009924
000130 fe d1 0f 42 38 36 e0 c1 ed f2 c3 41 0d 32 42 c2
       35.95507 -28.026474 24.493616 -48.548878
000140 78 d4 5b 42 0e 46 12 40 2b 69 7e 41 91 ee 64 c1
       54.95749 2.2855258 15.900676 -14.308244
000150 14 92 05 42 24 7a 76 c2 d1 e2 52 42 97 2d c2 c1
       33.392654 -61.619278 52.7215 -24.27226
000160 83 8f a8 41 92 46 70 c1 19 49 19 42 77 2a 19 c2
       21.070074 -15.017229 38.321384 -38.29147
000170 04 b0 a6 41 a1 74 61 c1 3b 47 ab 41 23 e2 05 c1
       20.835945 -14.090974 21.40978 -8.367709
000180 85 40 13 41 bf 86 5e c1 76 b2 c3 41 d0 b6 fa c1
       9.203252 -13.907897 24.46214 -31.339264
000190 9b 00 aa 41 63 03 57 c2 75 97 16 41 01 10 c0 40
       21.250296 -53.753307 9.411977 6.0019536
0001a0 7e 95 8b 41 b8 b1 74 c2 9f 34 ca 41 67 2a 3e c1
       17.447994 -61.173553 25.275694 -11.885352
0001b0 50 b5 5b 42 d8 00 10 40 d7 71 a8 41 88 c1 b8 c0
       54.927063 2.2500515 21.055586 -5.7736244
0001c0 91 94 b7 41 04 5d f7 c1 72 da 29 42 ab ec 46 c2
       22.947542 -30.920418 42.463326 -49.73112
0001d0 90 fc ac 41 12 18 5e c2 be e7 49 41 40 f8 1a c1
       21.623322 -55.523506 12.619078 -9.685608
0001e0 d5 74 92 41 b7 a3 69 c2 63 3e 05 42 39 f3 8b c1
       18.307047 -58.409878 33.310925 -17.493761
0001f0 8c 9b 0c 42 60 20 e5 c1 47 fe ad 41 f8 d4 46 c0
       35.1519 -28.640808 21.749159 -3.1067486
000200 22 7a 35 42 23 ba 17 c2 00 09 87 41 39 df b3 c1
       45.36927 -37.931774 16.879395 -22.483995
000210 81 d2 34 42 77 84 bc 41 99 56 43 42 3b 01 53 c2
       45.20557 23.56468 48.834568 -52.7512
000220 fb 0e dc 41 7b 8d 26 c0 95 d1 0e 42 4b 9a 51 c2
       27.507315 -2.6023853 35.70467 -52.400677
000230 74 4c 3d 42 6d ff 54 c2 8b 74 0b 42 e6 74 58 c1
       47.32466 -53.24944 34.86381 -13.52854
000240 3c c9 2d 42 29 8f a7 c0 bc 9f 40 42 db 1f 05 c2
       43.446518 -5.2362256 48.15599 -33.28111
000250 46 68 51 42 1f a2 b2 41 98 7d 17 42 4e c9 4c c1
       52.35183 22.32916 37.87265 -12.799147
000260 7b 64 73 42 0c ce 02 c2 58 3c 5a 42 a5 3d 5a c1
       60.848125 -32.701218 54.55893 -13.64005
000270 5c d0 58 42 b6 3a 77 c1 f2 e3 23 42 fc 9a 9f 40
       54.203476 -15.451834 40.972603 4.987669
000280 6b 5a 43 42 df f8 fa c1 5d dc 06 42 90 cc b7 40
       48.8383 -31.37152 33.7152 5.743721
000290 a5 ba 2a 42 4e 0f 52 c2 8a b4 4b 42 cc b4 6c 40
       42.68227 -52.514946 50.926308 3.698535
0002a0 1f 97 54 42 58 95 08 c2 64 78 92 41 10 f9 12 c0
       53.14758 -34.145844 18.308784 -2.2964516
0002b0 15 87 21 42 49 63 64 c1 c9 73 58 c1 d2 ef 86 40
       40.381916 -14.27424 -13.528268 4.216775
0002c0 6f cd 6b 42 09 39 0f c2 7f 50 ea 41 98 35 f4 40
       58.95062 -35.8057 29.289305 7.631542
0002d0 04 71 3a 42 39 9f 6e c2 f9 09 22 42 ba 29 76 c2
       46.610367 -59.65549 40.50974 -61.54075
0002e0 cb 6f 03 42 4d 60 1d c1 62 9b f9 41 d7 11 1b c1
       32.859173 -9.836011 31.20087 -9.691855
0002f0 e4 b0 70 42 6c 52 10 c2 60 ae c9 40 8f 3c 29 c1
       60.172745 -36.08049 6.302536 -10.577285
000300 21 0a 3e 42 29 16 f5 c1 c6 62 32 42 eb 83 7a c1
       47.50989 -30.63582 44.59646 -15.657207
000310 cf 65 37 42 96 34 6b c1 9f d2 d9 41 be 47 6e c0
       45.849422 -14.700338 27.227842 -3.7231288
000320 cb 1f 5f 41 0a f7 b6 40 2f ed 38 42 69 e1 32 c1
       13.945262 5.717656 46.231625 -11.180032
000330 43 7c 5c 42 57 45 16 c2 6a f4 5b 42 cc e5 41 c2
       55.12135 -37.567715 54.988686 -48.47441
000340 b5 74 5d 42 ef 7a f3 c1 ec 84 5a c1 6a ed 1f 40
       55.36397 -30.435026 -13.657452 2.4988656
000350 8c 22 8b c1 82 21 33 41 85 d1 2e 42 50 bd 59 c2
       -17.391869 11.195681 43.70461 -54.434875
000360 f2 28 93 c1 de 9c 9c 3f 9d 4a e0 41 f4 cf 09 41
       -18.394993 1.2235372 28.036432 8.61327
000370 05 cd d7 41 d5 24 61 41 43 56 dd c0 dd 17 99 41
       26.975107 14.071492 -6.91678 19.136652
000380 98 44 45 42 63 3a 69 c2 a2 36 38 42 bf 82 16 c1
       49.316986 -58.30702 46.053352 -9.40692
000390 d4 e3 f7 41 59 55 82 3f 88 c7 ed 41 3c db dc bd
       30.986244 1.0182296 29.722427 -0.10784003
0003a0 52 44 80 41 08 63 43 40 35 02 e3 41 5d 66 08 c1
       16.03336 3.0529194 28.376078 -8.524991
0003b0 13 df 18 42 86 b3 78 c2 32 4c 26 41 95 bb 41 3f
       38.217846 -62.175316 10.393602 0.7567685
0003c0 ca ff 84 c1 b6 0e af 41 fd b0 a3 41 4e 92 6b c2
       -16.624897 21.882183 20.46142 -58.892876
0003d0 fc 90 d3 41 77 7c 5c c2 6e 91 cf 41 f9 ab 00 c1
       26.445793 -55.121548 25.94601 -8.0419855
0003e0 82 7d f3 40 d2 24 02 c1 a6 44 7c 42 0a 39 dc c0
       7.609071 -8.133989 63.06704 -6.881963
0003f0 41 a3 80 42 8e 7f c4 c1 ca 99 18 42 96 0a 6d 41
       64.318855 -24.562283 38.150185 14.815084
