src_pose_3D_single_model/outputs/tSNE_vector_3_layer.npy (npy, 22328 bytes, 1 tensors)

array f4 [2775, 2]
00000000: 8668 87c1 4460 b3c2 5892 c8c1 93e6 06c2
00000010: 6215 2ec1 4e24 2dc2 212f 39c1 a202 28c2
00000020: 62bb e1c0 0ca3 95c1 291c 8cc1 2839 33c2
00000030: 5c10 13c1 666f b6c2 f164 3c41 2681 57c1
00000040: 2d42 513f 9151 1f41 7b7e f5c1 5e09 89c2
00000050: f32f 72c1 02cc 95c2 c543 40c1 3a8a 43c2
00000060: 0659 f3c1 f214 84c2 9d62 8541 b220 93c2
00000070: a4e3 22c2 e7fa 92c2 19ad ba3f aa04 91c1
00000080: 9cd9 ddc1 9eaa 80c2 9dbc dac0 65cf 89c2
00000090: e50a 6fc1 2269 adc2 e6d4 3a42 7207 41c2
000000a0: f3a6 2441 6903 f3c0 1aee d941 6672 12c2
000000b0: 06a9 02c2 c789 73c2 922c cec1 cd1e 43c2
000000c0: c7c9 bd41 d96c 3ac2 9caf 5041 97bf 89c2
000000d0: bfc7 e1c0 6a92 1fc2 2289 3141 ebd8 84c1
000000e0: 252a 0bc0 c003 07c2 d40e e9c1 fc35 67c2
000000f0: 1cc4 e7c1 f1fc d8c1 3572 f440 50c8 8bc2
00000100: 4b78 3641 1485 c1c1 e42f 0942 afaa 44c2
00000110: ad56 7941 0892 b2c1 0468 edc0 037d aac2
00000120: c223 8a41 99a2 a4c1 4a40 adc0 6e6d 9ec1
00000130: c98b bc41 cf9b 20c2 9d54 80c1 086e 77c2
00000140: 04dc 2c42 4822 3dc2 46f6 6cc1 d6d1 35c2
00000150: afd2 89c1 104d aec2 31d6 8342 0ffb c4c1
00000160: 7d4e 66c1 cefd 01c2 d1cf 5f41 c3ab 71c2
00000170: f633 dac0 fe41 14c2 3920 1dc1 57a6 39c2
00000180: 2f5e 0042 120a 1ec2 b07c 0e41 dfc4 67c2
00000190: 0152 c0c1 4d6b 91c2 59f5 d63e 7d73 dc3c
000001a0: 52ba f1c1 6129 7dc2 fc7d c940 5f11 cbc1
000001b0: cb96 2442 0c84 3cc2 27b1 2ec0 6307 3bc2
000001c0: 0f8b c340 5e92 5fc2 11c7 8841 728c 9bc2
000001d0: c2cd b1c1 ec5d 99c2 342f 5942 b400 8cc1
000001e0: 6c47 dfc1 0d61 88c2 f52e 6341 c490 c2c1
000001f0: 3411 9941 90d6 3bc2 61b6 71c0 65a4 1cc2
00000200: f9cd cf41 a57e 74c2 51cb acc0 98dc 5dc2
00000210: 7334 a242 30bc 45c1 6b80 ab41 7f81 acc2
00000220: 055c 9540 9f1a 36c2 d36a f6bc 1b65 8fc2
00000230: 3885 9a41 04df a8c2 7c27 2341 b1be e7c1
00000240: e2ec e341 62e3 e8c1 c81c f841 bbed 4fc2
00000250: f925 7942 9c11 bdc1 f462 9d41 856b cbc1
00000260: 74eb 4242 62a6 dec1 db1c 51c1 275e 81c2
00000270: 8f90 27c1 964e 81c2 9bf3 ff41 6434 f4c1
00000280: c096 0142 f874 58c2 2162 1e42 e8c5 cac1
00000290: 415f 7941 a973 a3c2 7f8d 3541 22ae 53c2
000002a0: f90d fa41 a3d0 85c2 3759 a0bf 1fb3 28c2
000002b0: c835 b341 3abf f1c1 31ad efc0 96e1 bb41
000002c0: 823c a142 a490 89c1 2ba7 2342 d59b 5cc2
000002d0: 241b bc40 8f71 b7c2 eadb ea41 b8df 6ac2
000002e0: 8af3 8640 1dd0 0ec2 63ab b640 f643 02c2
000002f0: 371f a242 0d7a 6dc1 9cd2 2142 8bb3 81c2
00000300: 7737 0242 d2a1 5fc2 e75f 9541 c4b9 08c2
00000310: de90 a341 054f 0bc2 b037 7e40 44e8 3bc2
00000320: 87c2 1d40 d33c 23c2 f63a 1b42 73a8 e5c1
00000330: 936e a142 0a0b a9c1 93e6 c441 bf97 a8c2
00000340: 29c7 9742 1272 a7c1 ef1f 9bc0 6ac6 a641
00000350: fbde 6742 6d4e 97c1 65b6 5741 6967 a0c2
00000360: 150b 9342 af30 9ac1 1504 2942 0452 65c2
00000370: 6798 4c42 50be 66c2 314b 4b42 cb7d 61c0
00000380: ff94 d240 67af bfc2 7c34 1342 a17c d3c1
00000390: 3f30 5541 b096 23c2 0264 3941 e4fc 26c2
000003a0: 48e6 79c0 3a8b 83c1 9a35 90c1 563e 3ec2
000003b0: 2a91 02c1 9449 b3c2 c7cf 5241 04e0 3fc1
000003c0: 1b94 a740 8fa4 3841 49bd eac1 4d23 8dc2
000003d0: 783f 6bc1 49eb 91c2 1a38 2ac1 8eec 4dc2
000003e0: 8a83 5240 164b a0c2 9963 a541 dc9f 92c2
000003f0: eb36 3642 6465 90c2 98e0 3742 9d66 4bc1
-16.926037 -89.68802 -25.071457 -33.72517 -10.88022 -43.285454 -11.574006 -42.00257
-7.054124 -18.704613 -17.51375 -44.805817 -9.191494 -91.217575 11.774644 -13.46903
0.817416 9.957414 -30.686758 -68.518295 -15.136706 -74.89845 -12.016545 -48.884987
-30.418468 -66.04091 16.673151 -73.56386 -40.722305 -73.49004 1.4584075 -18.127277
-27.731255 -64.33324 -6.835524 -68.90507 -14.94016 -86.70534 46.70791 -48.25727
10.290759 -7.5941663 27.24126 -36.611717 -32.665062 -60.88455 -25.771763 -48.78008
23.723524 -46.606297 13.042873 -68.8742 -7.055633 -39.892982 11.09598 -16.605917
-2.1744473 -33.753662 -29.13224 -57.80272 -28.970757 -27.123507 7.6389413 -69.891235
11.404368 -24.18998 34.29677 -49.166683 15.583661 -22.321304 -7.418947 -85.24416
17.26746 -20.579393 -5.414098 -19.803432 23.568254 -40.152157 -16.041315 -61.857452
43.21486 -47.283478 -14.810125 -45.454918 -17.227873 -87.15051 65.91834 -24.622587
-14.394162 -32.497856 13.988236 -60.417736 -6.818843 -37.064445 -9.820367 -46.41244
32.091976 -39.509834 8.905441 -57.942257 -24.040041 -72.70957 0.4198406 0.026910538
-30.215977 -63.29041 6.296629 -25.383482 41.14726 -47.128952 -2.7295625 -46.757214
6.110725 -55.892937 17.0972 -77.77431 -22.225468 -76.68344 54.296097 -17.500343
-27.909874 -68.18955 14.198964 -24.320686 19.1334 -46.959534 -3.7767565 -39.16054
25.975573 -61.123676 -5.399819 -55.465424 81.10244 -12.358444 21.437704 -86.25292
4.667483 -45.525997 -0.030080235 -71.69747 19.315048 -84.43558 10.19714 -28.968111
28.490665 -29.111027 31.014053 -51.98216 62.287083 -23.633598 19.673317 -25.4275
48.729935 -27.831242 -13.069545 -64.68389 -10.472793 -64.65349 31.993948 -30.525581
32.397217 -54.114227 39.59583 -25.346634 15.585755 -81.7259 11.347045 -52.92005
31.256823 -66.90749 -1.2527226 -42.174923 22.40126 -30.218372 -7.4898915 23.48515
80.61818 -17.195625 40.91325 -55.15218 5.878313 -91.721794 29.35738 -58.718475
4.217229 -35.703236 5.708421 -32.56637 81.06097 -14.842298 40.455673 -64.85067
32.554165 -55.908028 18.671827 -34.18141 20.445736 -34.827168 3.972149 -46.97682
2.464998 -40.8094 38.80758 -28.70725 80.715965 -21.13039 24.612585 -84.29638
75.888985 -20.930698 -4.847648 20.846882 57.967754 -18.913294 13.48203 -80.20197
73.521645 -19.273771 42.253986 -57.330093 51.14883 -57.685852 50.82343 -3.5233028
6.580688 -95.84258 36.801254 -26.435854 13.324279 -40.897156 11.586916 -41.746964
-3.9046803 -16.442982 -18.026173 -47.560875 -8.16044 -89.64371 13.175727 -11.992191
5.2368293 11.540175 -29.342424 -70.56895 -14.702995 -72.95954 -10.638697 -51.48101
3.2892785 -80.14665 20.673632 -73.312225 45.55363 -72.19803 45.96933 -12.712552
